data.pth (torch, 5802 bytes, 6 tensors)

l1.weight f4 [8, 62]
0.023877399 0.508007 0.15555842 0.2618275 0.43871748 0.11409519 0.042043906 0.03218144
0.3359288 -0.6478074 0.38274786 0.3902313 0.20171234 0.43179277 0.14674264 0.48708734
0.61548394 0.44738534 0.086544976 0.61583567 0.28433794 0.6144842 -0.5510202 0.64083767
0.16232954 0.072121985 -0.24114534 0.7767396 0.8406234 0.5918693 0.33661968 0.5551099
0.4509468 0.5501676 -0.2649805 -0.3345674 0.20511195 -0.33279413 0.3542928 0.13338372
0.13807333 0.41975552 0.317921 0.23952702 0.26614946 0.3737801 -0.44991323 -0.18518606
0.26815394 0.14305402 -0.30636138 0.58801097 -0.0076351077 0.2013399 0.19248559 -0.42032436
0.20545168 -0.115151145 0.59679025 0.18872714 0.27632567 -0.03931184 0.39200744 -0.31967935
-0.35520363 0.0880776 -0.24376154 -0.103342034 -0.31461588 -0.31638783 -0.2923433 0.9583053
-0.25775507 0.65608424 0.493368 -0.9054932 0.34337795 0.036129657 -0.19860238 0.33345446
-0.12651284 0.2950032 0.20766695 -0.3368158 1.07066 -0.5358064 -0.12623471 -0.20026766
-0.004361129 -0.5354507 -0.5358453 -0.5353923 -0.2565244 -0.43441537 0.30396178 -0.1833996
0.32397586 0.34598982 -0.0033564384 0.805448 -0.062100768 0.24092917 -0.045792844 0.086570635
-0.2399362 -0.061186597 -0.006086497 0.044534914 0.8044719 -0.13105354 0.12321382 0.3056233
0.5693292 0.069924586 -0.021832492 -0.28521585 0.3433348 0.30871505 0.33617315 0.2569645
0.052130297 -0.09937759 0.39181706 0.26603276 0.42019904 0.65228415 0.02808776 -0.025890779
-0.26677614 0.16607724 0.11107436 -0.070025 -0.3648299 0.7707112 -0.2728012 0.4006629
0.46007875 -1.0013216 0.39266688 0.0654137 0.39959797 0.3741775 -0.5411197 0.20695756
0.4228867 0.55707353 0.70473933 0.34053862 -0.080268964 -0.033366345 -0.34757698 0.43695593
0.23857372 0.495683 -0.27325627 0.47754967 0.29425606 -0.057609893 -0.40127075 -0.32117105
0.11622096 0.63767105 -0.03190885 0.39716566 0.05538825 -0.123687804 -0.09860624 -0.104158945
0.023478778 0.28835958 0.7752138 -0.38532966 0.27999642 0.20959903 0.37641543 -0.19702011
0.16784374 -0.124946475 0.3634402 -0.43688634 0.22149237 0.018275024 -0.22613755 0.04784619
0.34232607 0.23286748 -0.33766252 0.4812276 0.6190962 0.19024324 0.25525284 -0.12796615
-0.045075323 -0.2352974 0.4597858 -0.66894406 0.3506838 -0.33395275 -0.40336764 0.754535
-0.14959988 0.21441321 0.67477083 -0.22675 1.0319014 0.015398059 -0.15752538 0.65995157
-0.6803304 0.6494948 -0.16331543 -0.23333657 0.79356056 0.67585206 0.704487 0.8040329
0.36483723 0.60081047 -0.03897364 0.47302705 0.88530564 0.26097134 0.16802026 -0.43725568
0.09846728 -0.075411186 0.11055525 0.6047864 0.25488824 0.38308665 0.20282449 0.18104377
-0.3091481 0.8545475 0.08818412 -0.049139313 -0.77632207 0.33649063 0.7316125 -0.22199847
-0.256373 0.67951846 -0.19536129 0.48784414 0.43729943 -0.06333574 -0.17612249 0.12564714
-0.26673904 0.5156142 0.64219755 0.0048863073 0.055424184 0.8304478 0.41932118 0.692072
00000000: 899a c33c bf0c 023f b54a 1f3e 410e 863e
00000010: 949f e03e bdaa e93d 3b36 2c3d b0d0 033d
00000020: dcfe ab3e b5d6 25bf 87f7 c33e 66cc c73e
00000030: ae8d 4e3e f113 dd3e b443 163e 8363 f93e
00000040: 5b90 1d3f b10f e53e 7e3e b13d 68a7 1d3f
00000050: be94 913e d64e 1d3f a90f 0dbf f00d 243f
00000060: b739 263e b1b4 933d ceee 76be 68d8 463f
00000070: 1833 573f bf84 173f 6a59 ac3e af1b 0e3f
00000080: 80e2 e63e c9d7 0c3f 86ab 87be 6b4c abbe
00000090: de08 523e fe63 aabe de65 b53e be95 083e
000000a0: 1863 0d3e 32ea d63e 8bc6 a23e 9246 753e
000000b0: be44 883e 1b60 bf3e 075b e6be 6aa1 3dbe
000000c0: 794b 893e c17c 123e 66db 9cbe e387 163f
000000d0: ed2f fabb 0c2c 4e3e f11a 453e c134 d7be
000000e0: ed61 523e 5dd4 ebbd 3fc7 183f b041 413e
000000f0: 8f7a 8d3e 7405 21bd 33b5 c83e 03ad a3be
00000100: 40dd b5be 0762 b43d a09c 79be fda4 d3bd
00000110: 5515 a1be 96fd a1be 05ae 95be 7f53 753f
00000120: 79f8 83be 23f5 273f bb9a fc3e 67ce 67bf
00000130: 3ccf af3e b1fc 133d 6c5e 4bbe 8bba aa3e
00000140: 958c 01be a90a 973e a5a6 543e 1f73 acbe
00000150: 630b 893f 9c2a 09bf ac43 01be f712 4dbe
00000160: cde7 8ebb 4c13 09bf 282d 09bf 780f 09bf
00000170: 2b57 83be b16b debe e1a0 9b3e 1bcd 3bbe
00000180: 2ae0 a53e 9425 b13e b1f7 5bbb d731 4e3f
00000190: 605d 7ebd 23b6 763e 4791 3bbd f24b b13d
000001a0: d6b1 75be cc9e 7abd 3d71 c7bb 3e6a 363d
000001b0: dff1 4d3f e632 06be 8757 fc3d a87a 9c3e
000001c0: 8fbf 113f 9f34 8f3d 0eda b2bc d007 92be
000001d0: 94c9 af3e e60f 9e3e e31e ac3e da90 833e
000001e0: 9486 553d 7a86 cbbd 3f9c c83e 7235 883e
000001f0: 5424 d73e 18fc 263f 4d18 e63c e618 d4bc
00000200: e296 88be 2710 2a3e f47a e33d 4469 8fbd
00000210: fcca babe 544d 453f 99ac 8bbe b023 cd3e
00000220: 718f eb3e 4e2b 80bf a20b c93e 9ef7 853d
00000230: 1b98 cc3e 3194 bf3e d286 0abf afec 533e
00000240: 9b84 d83e 5f9c 0e3f cc69 343f 145b ae3e
00000250: 0e64 a4bd 26ab 08bd 9cf5 b1be b0b8 df3e
00000260: ab4c 743e 2aca fd3e 3fe8 8bbe 6481 f43e
00000270: bba8 963e 5af8 6bbd 5c73 cdbe 8870 a4be
00000280: 4105 ee3d 693e 233f dbb2 02bd 4c59 cb3e
00000290: cade 623d 0850 fdbd 11f2 c9bd 4951 d5bd
000002a0: 9156 c03c dea3 933e 6974 463f ee49 c5be
000002b0: b15b 8f3e 21a1 563e 86b9 c03e a4bf 49be
000002c0: 3bdf 2b3e f0e3 ffbd d514 ba3e 91af dfbe
000002d0: e5ce 623e 81b5 953c 9a90 67be 5efa 433d
000002e0: 5d45 af3e d074 6e3e 1ae2 acbe 7763 f63e
000002f0: 177d 1e3f 20cf 423e 80b0 823e 8f09 03be
00000300: e7a0 38bd cdf1 70be 0b69 eb3e eb3f 2bbf
00000310: d48c b33e dbfb aabe 3486 cebe 3529 413f
00000320: b630 19be 238f 5b3e c8bd 2c3f 2731 68be
00000330: 5815 843f 2448 7c3c 554e 21be 96f2 283f
00000340: 222a 2ebf 4b45 263f 293c 27be c8ef 6ebe
00000350: c926 4b3f a404 2d3f 4359 343f 1ad5 4d3f
00000360: f2cb ba3e b7ce 193f d3a2 1fbd 9a30 f23e
00000370: 64a3 623f 099e 853e 810d 2c3e fadf dfbe
00000380: 37a9 c93d 2e71 9abd ca6a e23d 48d3 1a3f
00000390: b680 823e ef23 c43e 39b1 4f3e 8a63 393e
000003a0: a948 9ebe a0c3 5a3f e099 b43d 4e46 49bd
000003b0: 0bbd 46bf 8048 ac3e f54a 3b3f 9153 63be
000003c0: 5243 83be ecf4 2d3f ca0c 48be b5c6 f93e
000003d0: b6e5 df3e 2bb6 81bd 7459 34be a5a9 003e
000003e0: 0592 88be 4bff 033f 0f67 243f 511d a03b
000003f0: 7804 633d 3a98 543f 44b1 d63e a12b 313f

l1.bias f4 [8]
0.82244694 0.53545237 1.1304142 0.7377696 0.82152784 0.59983087 0.6692762 0.6920442
00000000: e28b 523f 6813 093f 6ab1 903f 78de 3c3f
00000010: a64f 523f 848e 193f af55 2b3f cf29 313f

l2.weight f4 [8, 8]
0.21148184 -0.2424929 -0.23513246 -0.23219234 -0.22720708 -0.2684473 -0.16503441 0.118020475
-0.13025707 -0.2072991 -0.21534093 -0.18214649 -0.05875814 0.16265085 -0.219223 -0.008305132
1.0370188 -0.6610051 0.042973846 1.2612667 1.3150414 0.6050794 0.36707258 -0.77406466
0.39878407 -0.085826494 -0.37707606 -0.41265336 0.61340475 -1.8244439 0.042651247 1.1998045
0.16231444 1.180358 1.345635 -0.50067 -0.9439925 1.2357848 0.79499805 0.31300968
1.3768439 -0.71249926 0.97015405 -0.12737794 0.7904818 -0.8599201 -0.16444929 1.5623735
0.81185985 -0.07869319 -0.46866894 0.2326974 -0.74996066 0.27395663 1.0082356 0.74080426
0.11974206 -0.97806704 -0.92702997 0.35111746 0.33232665 -0.88328063 0.18530545 0.1217595
00000000: b28e 583e 0f50 78be 90c6 70be d4c3 6dbe
00000010: f9a8 68be ed71 89be c8fe 28be b8b4 f13d
00000020: 1c62 05be 3746 54be 5582 5cbe 9c84 3abe
00000030: 60ac 70bd f28d 263e fe7b 60be 4012 08bc
00000040: 08bd 843f a137 29bf 5805 303d 3071 a13f
00000050: 4753 a83f 7ce6 1a3f f0f0 bb3e 1a29 46bf
00000060: 6d2d cc3e cdc5 afbd 1d10 c1be 4d47 d3be
00000070: 1808 1d3f 6187 e9bf 13b3 2e3d 3293 993f
00000080: c235 263e f915 973f c53d ac3f e92b 00bf
00000090: 7ea9 71bf 322e 9e3f fe84 4b3f ce42 a03e
000000a0: 6c3c b03f 5a66 36bf 045c 783f 5d6f 02be
000000b0: 045d 4a3f b923 5cbf 6565 28be dbfb c73f
000000c0: 0cd6 4f3f e529 a1bd 60f5 efbe 3a48 6e3e
000000d0: 6cfd 3fbf 0b44 8c3e dd0d 813f 59a5 3d3f
000000e0: 533b f53d 9a62 7abf d651 6dbf abc5 b33e
000000f0: b826 aa3e ae1e 62bf b6c0 3d3e 0b5d f93d

l2.bias f4 [8]
-0.16737357 -0.065826416 0.46785527 -0.12060272 0.42591417 0.30816084 -0.26211607 -0.37418056
00000000: fa63 2bbe 00d0 86bd ba8a ef3e 8ffe f6bd
00000010: 6c11 da3e 42c7 9d3e 1434 86be 9894 bfbe

l3.weight f4 [8, 8]
0.15629098 0.328236 -0.53099483 0.72980636 -1.8697042 0.4987214 -1.06931 -1.3581767
-0.08647451 -0.02429977 -0.3079546 -0.4212991 -0.3823095 -0.23303147 0.45000672 -0.9839538
-0.096229106 0.039414972 0.04898084 0.16393879 -1.4710643 -0.34747893 0.10911437 0.7848919
0.052511603 -0.16190358 -1.0998842 -1.041557 1.0979769 -1.5491425 -0.63134205 -0.066851914
0.10009274 -0.14819063 0.37357226 -2.0811594 -1.0898556 0.6664894 -0.27053154 -1.3120078
-0.15788387 -0.29680726 -1.1832024 -2.0344074 0.16563404 0.029658452 0.29063717 -0.38608956
0.12924793 -0.003113687 0.9857159 -0.6161642 -1.4381891 -1.6226664 -0.63116324 -0.3600671
-0.17198582 0.3233141 -1.5068336 -0.054768484 0.2850302 0.42051622 -1.4135743 -0.750918
00000000: be0a 203e 8d0e a83e 47ef 07bf 97d4 3a3f
00000010: 7852 efbf 6958 ff3e 26df 88bf bcd8 adbf
00000020: 8c19 b1bd 5010 c7bc 3aac 9dbe 84b4 d7be
00000030: 12be c3be cd9f 6ebe 4867 e63e 65e4 7bbf
00000040: c413 c5bd 9871 213d 22a0 483d 92df 273e
00000050: d64b bcbf c2e8 b1be 5b77 df3d adee 483f
00000060: 6816 573d 0dca 25be 01c9 8cbf bd51 85bf
00000070: 828a 8c3f 4d4a c6bf a29f 21bf a8e9 88bd
00000080: 6cfd cc3d 49bf 17be dd44 bf3e b731 05c0
00000090: 6380 8bbf 0d9f 2a3f 1c83 8abe dfef a7bf
000000a0: 4fac 21be 1ff7 97be 2d73 97bf bb33 02c0
000000b0: f89b 293e 48f6 f23c 65ce 943e 88ad c5be
000000c0: 9259 043e 000f 4cbb e157 7c3f f0bc 1dbf
000000d0: 9516 b8bf 88b3 cfbf ea93 21bf b75a b8be
000000e0: 0d1d 30be 6d89 a53e ecdf c0bf eb54 60bd
000000f0: 7aef 913e e74d d73e 01f0 b4bf 293c 40bf

l3.bias f4 [8]
-0.19815363 -0.56294054 -0.6301136 0.09529383 -0.076590344 -0.44062167 0.62306505 0.63585377
00000000: c9e8 4abe df1c 10bf 204f 21bf 6929 c33d
00000010: 66db 9cbd 2a99 e1be 3181 1f3f 50c7 223f
